…
sed":313,"user":{"displayName":"Amirhossein Ghadami","userId":"14763792027541053602"}},"outputId":"3d7a52b3-c7c9-4e05-f23b-a6acaade452d"},"outputs":[{"output_type":"stream","name":"stdout","text":["Model: \"model_1\"\n","_________________________________________________________________\n"," Layer (type)                Output Shape              Param #   \n","=================================================================\n"," input_2 (InputLayer)        [(None, 780, 48, 1)]      0         \n","                                                                 \n"," conv2d_5 (Conv2D)           (None, 780, 48, 64)       640       \n","                                                                 \n"," max_pooling2d_2 (MaxPoolin  (None, 390, 24, 64)       0         \n"," g2D)                                                            \n","                                                                 \n"," conv2d_6 (Conv2D)           (None, 390, 24, 32)       18464     \n","                                                                 \n"," max_pooling2d_3 (MaxPoolin  (None, 195, 12, 32)       0         \n"," g2D)                                                            \n","                                                                 \n"," conv2d_7 (Conv2D)           (None, 195, 12, 32)       9248      \n","                                                                 \n"," up_sampling2d_2 (UpSamplin  (None, 390, 24, 32)       0         \n"," g2D)                                                            \n","                                                                 \n"," conv2d_8 (Conv2D)           (None, 390, 24, 64)       18496     \n","                                                                 \n"," up_sampling2d_3 (UpSamplin  (None, 780, 48, 64)       0         \n"," g2D)                                                            \n","                                                                 \n"," conv2d_9 (Conv2D)           (None, 780, 48, 1)        577       \n","                                                                 \n"," tf.math.multiply_1 (TFOpLa  (None, 780, 48, 1)        0         \n"," mbda)                                                           \n","                                                                 \n","=================================================================\n","Total params: 47425 (185.25 KB)\n","Trainable params: 47425 (185.25 KB)\n","Non-trainable params: 0 (0.00 Byte)\n","____________________________________________________________
…
